lstm_model.tflite (tflite, 333744 bytes, 12 tensors)

arith.constant7 f4 [512]
00000000: 6a9d b4b9 d87e 85bc 1c6f c6bc bab9 10bc
00000010: 9e65 b2bc 37c4 cbbb 2300 6dbc 9f2a efbb
00000020: 435a a7bc 1537 f8bb 2c1e debb cc22 0dbc
00000030: f5d2 e5bc d3cb abba cd9e 22bc 4b9f a3bc
00000040: cac9 643c 173e 923b 7374 d7bc 80ef 9fbc
00000050: 2972 0abc 0c20 823b bd31 a6bc 2a35 cc3c
00000060: 8978 90bc 9234 e2bc 580d 3c3b 1237 c1bb
00000070: 1f01 51bc 9004 51bb 11bb 74bc 6b40 223d
00000080: afb9 d3bc 8d5d 32bc 04de d7b9 d658 91bc
00000090: a6e4 46bc 36f5 14bc 86fe 563c eae6 8dbb
000000a0: be6f 81bb 7e73 afbc 2ced 2abc 86c6 c4bc
000000b0: 9e30 87bc 3276 7e3c 8507 a1bb 3f84 283d
000000c0: c1dc 083b 4583 273d 8dcb b1bb 4728 d7bb
000000d0: ce66 c5bc 02ed a13b c429 5dbb b9fa 06bd
000000e0: f091 d13a 87d6 31bc bbcf 15bc 6c4e e6bb
000000f0: 2f83 ce3a a0d6 5fbc 829d 5aba 1623 18bc
00000100: cf30 13bd ff31 8b3b 528b 3fbc 5cb2 43bc
00000110: 3f93 01bc f53b 883b 6801 62bb 7a4a d4bb
00000120: ca13 273d 3cb5 c5bc 3e20 b2bc a18a 1b3e
00000130: 17e3 aabc e1b7 8c3b ead2 3fbc 855f fa3c
00000140: 2f94 a8bb 1ad4 013c 0f6f 95bc 5e80 17bc
00000150: 241c 14bc adcc db3b c203 fc3b 32e5 a7bc
00000160: 8704 f7bb 13fb c5bb bcbe 8fbc dea8 afbc
00000170: 6fa9 60bb 0aa6 14bc 655a 00bc 218e 273d
00000180: bd65 aabc f648 c63b 958e eabb 25a3 aa3b
00000190: 73d6 76bc e86c a2bc 984b babc 2363 97bc
000001a0: 3053 c1ba 990b e43c 12a3 143d 2a35 043d
000001b0: 1a7b 47bc 7cc0 81bc f2ee aabb fbab 803a
000001c0: 3c2b 653c 2cc1 aebc 7d49 51bc 57d2 efbc
000001d0: dfc3 18bc 12dd fcba cfc2 74bc 61a0 4a3c
000001e0: 43ff 19bc 862f 0f3c e33a 8f3c f67b 273c
000001f0: c390 33bc c663 a7bb 8c77 e33b 9c1b 363c
00000200: 0901 7e3f 7c2e 7d3f 60b9 793f 96be 803f
00000210: 3dcd 7a3f 80df 7d3f fdcb 7c3f 9fd9 803f
00000220: c3f7 793f e2ef 7d3f 1234 7f3f 7926 7e3f
00000230: 20fe 7b3f 9cbf 7f3f aa56 7d3f 883a 7b3f
00000240: d8f8 813f 12e0 803f 081f 7a3f ac22 7b3f
00000250: e069 7f3f a017 813f 1eb0 7a3f a141 843f
00000260: d8b6 7a3f 237f 7a3f 0577 803f 71ec 7e3f
00000270: e392 7d3f b187 803f b7c8 7b3f 0530 863f
00000280: 484a 7a3f bb04 7b3f e364 813f 9c20 7c3f
00000290: 59d0 7c3f e4d1 7e3f f3b7 813f a628 7f3f
000002a0: 142d 7f3f 24f3 7a3f 8f24 7e3f d35e 793f
000002b0: e915 7e3f 2a6d 823f 4379 803f 1c63 843f
000002c0: 958d 803f dcfd 843f b741 7a3f 459d 7d3f
000002d0: ff77 793f 5e94 803f 81f3 7d3f 98cc 783f
000002e0: bda3 803f 152d 7d3f 2e9c 7d3f ed1e 7c3f
000002f0: 0ff8 803f 9402 7d3f e731 803f 0779 7e3f
00000300: 5ccd 763f 5587 813f c843 803f f115 7c3f
00000310: 9cc1 7e3f 9892 813f 6a22 7e3f 0e40 7e3f
00000320: b12f 853f 07f3 7a3f 2f7f 7c3f 584d 933f
00000330: 0082 7c3f 19b0 803f ae71 7e3f 4d7a 843f
00000340: c11a 803f 89b0 813f 25c5 7b3f ac2a 7f3f
00000350: 33d3 7f3f 7a2e 823f f0ef 813f df83 7b3f
00000360: f0d6 7d3f 8abf 7f3f 2385 7c3f 3571 7b3f
00000370: b00d 7f3f b29b 7d3f 6e73 7e3f 3653 863f
00000380: d682 7c3f 13f5 803f 6f6d 7e3f 76ed 803f
00000390: 985f 7e3f f47a 7b3f d760 7a3f f9b7 7b3f
000003a0: 3c81 813f e71a 843f 71c4 853f 11cf 833f
000003b0: 900e 7f3f f76f 7b3f c8bd 7e3f dcc9 7f3f
000003c0: 8fa4 813f 7c78 7d3f a76f 7c3f 39f3 793f
000003d0: da76 7f3f 5401 803f 4ffb 7c3f df48 823f
000003e0: db1a 7d3f 8197 823f f125 833f b9b6 813f
000003f0: 3903 7e3f a249 7e3f 9993 803f b9f6 813f
-0.00034449558 -0.016295835 -0.024222903 -0.008833343 -0.02177697 -0.006218459 -0.014465365 -0.007298782
-0.020428782 -0.0075749257 -0.006778499 -0.008614253 -0.028054694 -0.0013107009 -0.009925556 -0.019973418
0.013964126 0.004462968 -0.026300645 -0.019523382 -0.008450069 0.0039711054 -0.020287389 0.024927694
-0.0176356 -0.027612958 0.0028694477 -0.0058964575 -0.012756615 -0.0031893589 -0.014937178 0.039612215
-0.025845377 -0.010886562 -0.0004117341 -0.017742556 -0.012139475 -0.009091666 0.013122207 -0.0043305056
-0.0039500883 -0.021417376 -0.010432523 -0.024020445 -0.016502675 0.01553111 -0.0049142265 0.041141745
0.0020883533 0.040896673 -0.0054258765 -0.0065660807 -0.024096873 0.0049415836 -0.0033746818 -0.03295395
0.0015988927 -0.01085437 -0.009143765 -0.0070283916 0.0015755648 -0.01366201 -0.00083395105 -0.009285709
-0.03593522 0.0042479034 -0.011690931 -0.01194438 -0.007908641 0.004157538 -0.0034485701 -0.006478605
0.040790357 -0.02413427 -0.02174389 0.15189601 -0.020860238 0.004294381 -0.011708001 0.030563125
-0.005144618 0.007924104 -0.018241433 -0.009246914 -0.009039912 0.006707749 0.0076908777 -0.020495031
-0.0075383815 -0.0060418933 -0.017547004 -0.021442827 -0.0034280678 -0.00907279 -0.007834052 0.04090703
-0.020800466 0.006051178 -0.0071581104 0.0052074366 -0.015065777 -0.019827321 -0.022741124 -0.01847989
-0.0014749523 0.027837561 0.03628833 0.032277264 -0.012175346 -0.015838854 -0.005216473 0.0009816879
0.013987359 -0.021332346 -0.012773869 -0.029275103 -0.009324043 -0.0019291958 -0.014939024 0.012367339
-0.009399238 0.008739358 0.017484134 0.010222426 -0.010959807 -0.0051083295 0.0069417413 0.011114981
0.9922033 0.98899055 0.97548485 1.0058162 0.9796942 0.9916916 0.9874876 1.0066413
0.9764368 0.9919416 0.9968883 0.99277455 0.9843464 0.9990175 0.98960364 0.98136187
1.0154066 1.0068381 0.977036 0.9809978 0.9977093 1.0085335 0.97924984 1.0332528
0.9793525 0.97850245 1.0036322 0.9957953 0.99052256 1.004141 0.9835314 1.0483404
0.97769594 0.98054093 1.0108913 0.9848726 0.98755413 0.9953902 1.0134262 0.996714
0.9967816 0.98027253 0.99274534 0.97410315 0.9925218 1.0189564 1.0037006 1.0342746
1.0043207 1.0389972 0.9775652 0.990681 0.97448725 1.0045278 0.9919968 0.97187185
1.0049969 0.98896915 0.99066436 0.9848469 1.0075701 0.9883206 1.0015229 0.99403423
0.96407104 1.0119425 1.0020685 0.9847098 0.99514174 1.0122862 0.9927126 0.9931649
1.0405179 0.9802708 0.98631567 1.1507978 0.98635864 1.0053741 0.9939221 1.0349823
1.0008165 1.0131999 0.98347694 0.9967449 0.9993164 1.0170434 1.0151348 0.98248094
0.99156094 0.9990164 0.9864065 0.98219615 0.9963026 0.990657 0.9939488 1.0494144
0.9863714 1.0074791 0.9938573 1.0072467 0.99364614 0.98234487 0.97804016 0.98327595
1.0117564 1.032071 1.0450574 1.0297567 0.99631596 0.9821772 0.99508333 0.9991739
1.0128344 0.9901197 0.9860787 0.97636753 0.9979073 1.0000405 0.98820966 1.0178488
0.98869103 1.0202485 1.0245954 1.0133888 0.9922367 0.99331105 1.0045043 1.0153419

arith.constant8 f4 [256]
00000000: cc2d 703d 9847 ffbb c59a 0bbc c5ef 80bb
00000010: ab22 5ebc 682a 843d 496d 88bc 0b69 90bb
00000020: 7f5b c03c 6a4b b5bc 8bfa 2fbb d049 c4bc
00000030: 5de8 423c d894 8abc a58c a03c 760a eb3c
00000040: cd09 bf3c 6a1b 163c 5704 6fbc 07fa 99bc
00000050: b0bc 96bc 1984 11bc f340 9ebc 74a4 753a
00000060: a994 253d 07ec b6bc 9ac6 ebbb 3745 26bc
00000070: 2258 f0b8 ca79 2fba efa1 143c ce93 8a3c
00000080: 6ced 0bbc cdcd 2dbc f862 39bc 2d99 d83c
00000090: 997d 4cbc aa0e 3fbb 2b2b 90bc f305 99b9
000000a0: 7483 493c 8440 203d 13dc 1bbc e46b e83c
000000b0: 89c7 a23b 14ae 843c 43ff 0fbc 677f 2c3d
000000c0: d521 26b9 1110 bfbc 0dee 8ebc fa05 55bc
000000d0: e1b2 80bb 775a 3dbc 62b3 52bc cc9c 27bc
000000e0: 4fa3 3abc ce52 493b 646b f43b 6438 5cbc
000000f0: 2d78 97bb 8b8d 07bd 014b 03bc 4b06 a23c
00000100: a419 883f 016e 7d3f c178 7f3f b133 803f
00000110: 44fe 7c3f b531 893f 9469 7b3f a3f0 7e3f
00000120: bfad 843f f1bb 7a3f 1b54 7f3f fb9f 793f
00000130: f514 823f 410f 7d3f efa9 833f c6a4 833f
00000140: 226f 823f 3c35 813f 2287 7c3f 712a 7b3f
00000150: ee4c 7c3f 6563 7e3f 8545 7b3f f223 803f
00000160: 3cde 853f 6a10 7b3f 3d7a 803f 708b 7d3f
00000170: cbc7 7f3f 5f82 803f ef28 813f e727 823f
00000180: 956c 7f3f f1b4 7c3f 0a0e 7d3f 8cec 853f
00000190: 17f4 7b3f 8d40 7f3f a891 7b3f ec4c 803f
000001a0: f8c4 813f 9d88 863f a546 7e3f 6402 843f
000001b0: 4df1 803f c32e 833f 54a7 7d3f 6de6 853f
000001c0: 8a84 803f eed5 793f 79e8 7b3f e0ba 7d3f
000001d0: 83e9 7f3f 75fb 7c3f a79e 7c3f 339e 7d3f
000001e0: 39da 7d3f f231 803f 8eaf 803f 6814 7d3f
000001f0: a7e2 7e3f f1d8 773f a5c1 7d3f 23a2 823f
00000200: afad 2a3d 17ac 88bc 1d1e abbb 4cdf 97ba
00000210: c24f abbc c7da 273d ce9b babc 8cfe 55bb
00000220: e4f5 0dbb 928d 48bc 04c9 66bc 4745 cebc
00000230: 2876 8bba 5076 84bc 3043 c1bc af33 723b
00000240: 2f98 653b 94c3 a1bb cce2 a9bc 84e9 f7bc
00000250: ff05 b2bb 046e a6bb f816 63bc 2034 b9bb
00000260: 76d6 b93c 376e 97bc c7e5 47bb c09d 22bb
00000270: b00c 983b 8a37 0bbc 478b efbb ebf3 b23c
00000280: f7b7 65bc 0933 0cbc f097 82bc 3dfc 3b3c
00000290: ccda aabc 9fff 3abc d6fb b5bc 9127 8bbc
000002a0: 33a5 8b3b 3cee 8a3c 600d aabb 8088 343c
000002b0: f1e0 bf3b 2892 563b 61ff 8bba 4b71 fa3c
000002c0: cfe7 c3bb c4d9 12bd 3081 b6bc 4329 fabc
000002d0: 7a38 5fbb dbd7 64bc 16df 57bb 1891 8cbc
000002e0: ccc8 a0bc 8e72 30bc e930 fc3b 4a51 7abb
000002f0: 18ce 68bc 9420 f1bc 211c 6dbc c5db 383b
00000300: dc30 6e3d fa84 febb d1b9 04bc 2470 72bb
00000310: fda1 5abc cf04 853d 091d 89bc da30 7cbb
00000320: 03de be3c 4085 b9bc 4e07 31bb 5d0a c3bc
00000330: 4320 633c d00b 8bbc 457f a83c 6577 e83c
00000340: ff64 c33c 3491 1d3c 16c0 72bc e69c 9ebc
00000350: 7135 91bc af08 1bbc bc34 9bbc 4c58 9b3a
00000360: dd79 243d fe44 aebc acaf dcbb 9682 26bc
00000370: 0bb0 01ba a7bc 36ba 154a 183c e6ef 873c
00000380: cd1c 0fbc 3b1a 2fbc 05f0 3abc 4eb3 dd3c
00000390: f543 4dbc 2c34 3dbb 6efd 96bc 5202 b1b9
000003a0: c026 4b3c 1f2f 1d3d 9c69 10bc f014 ed3c
000003b0: 4792 af3b 37ab 863c 1a8d 12bc 9f23 2b3d
000003c0: 2af6 12b6 0f8b bfbc 2d1c 83bc ed08 63bc
000003d0: c43c 77bb dee9 3dbc 9d14 5abc 7d6e 1abc
000003e0: c80a 39bc 380b 373b e48a ed3b 83ba 5dbc
000003f0: add8 93bb 2a09 07bd a043 03bc 8f2e a33c
0.058637425 -0.007790517 -0.008520787 -0.0039348328 -0.01355807 0.06453401 -0.016653674 -0.0044070533
0.023481129 -0.022130687 -0.0026852216 -0.023960978 0.01189622 -0.016916677 0.019598315 0.028691512
0.023320103 0.009161809 -0.014588437 -0.01879598 -0.01840052 -0.008881592 -0.01931808 0.0009370514
0.040424976 -0.022329343 -0.007195306 -0.010148338 -0.00011460508 -0.0006693868 0.009071811 0.016916182
-0.0085404925 -0.010608149 -0.0113151 0.026440227 -0.012481117 -0.0029153028 -0.01759871 -0.00029186867
0.012299407 0.039124027 -0.009512919 0.028371759 0.004967634 0.016196288 -0.0087888865 0.042113688
-0.00015843597 -0.02332309 -0.017447496 -0.013001913 -0.003927574 -0.011557213 -0.012860151 -0.010230254
-0.011391475 0.0030719521 0.007459091 -0.013441179 -0.0046224804 -0.03309397 -0.008013488 0.019778391
1.0632825 0.9899598 0.9979363 1.0015775 0.9882548 1.0718294 0.98207974 0.9958593
1.0365523 0.97943026 0.9973771 0.97509736 1.0162646 0.988514 1.0286235 1.028466
1.0190165 1.0094371 0.98643696 0.98111635 0.98554885 0.99370414 0.98152953 1.001097
1.0458446 0.9807192 1.0037304 0.9904089 0.99914235 1.0039786 1.0090617 1.0168427
0.9977506 0.98713595 0.98849547 1.0462813 0.98419327 0.9970787 0.9826913 1.0023475
1.0138235 1.0510441 0.99326545 1.031323 1.0073639 1.0248646 0.9908345 1.0460945
1.0040448 0.97592056 0.984016 0.99113274 0.99965686 0.9882119 0.98679584 0.9906952
0.99161106 1.0015242 1.0053575 0.9885926 0.99564594 0.968154 0.99123603 1.020573
0.041669544 -0.016683621 -0.0052220956 -0.0011586933 -0.020912055 0.040980127 -0.022779372 -0.0032652942
-0.0021661455 -0.012240784 -0.014086012 -0.025179518 -0.0010640072 -0.016169697 -0.023591608 0.0036957075
0.0035033335 -0.004936645 -0.020738028 -0.030262716 -0.0054328437 -0.005079033 -0.013860457 -0.0056519657
0.02268527 -0.018485172 -0.0030501948 -0.0024813265 0.0046401843 -0.008497128 -0.0073103043 0.021844825
-0.014020911 -0.00855709 -0.01594159 0.0114737125 -0.020856284 -0.011413484 -0.022214811 -0.01698664
0.0042616366 0.016959302 -0.0051895827 0.011018872 0.0058556725 0.0032740925 -0.0010680967 0.0305716
-0.0059785615 -0.03585221 -0.022278398 -0.030537253 -0.0034060762 -0.01396748 -0.0032939366 -0.01715903
-0.019626997 -0.0107694995 0.00769626 -0.0038195425 -0.014209293 -0.02943448 -0.0144720385 0.0028207165
0.058152065 -0.007767317 -0.008100943 -0.003699311 -0.013344285 0.06495058 -0.016737478 -0.0038481266
0.023299223 -0.022646546 -0.002701241 -0.023808653 0.013862672 -0.016973406 0.0205685 0.028377244
0.02385187 0.009617139 -0.014816305 -0.019361924 -0.017725678 -0.00946252 -0.018946044 0.0011851876
0.04015528 -0.021273132 -0.006734809 -0.01016297 -0.0004947192 -0.00069708604 0.009295006 0.016593885
-0.008734894 -0.010687406 -0.011409764 0.027063038 -0.012528409 -0.0028870208 -0.018431392 -0.000337618
0.012399375 0.038375016 -0.008814242 0.028940648 0.005358014 0.016439063 -0.008944774 0.041782018
-2.1898982e-06 -0.023381738 -0.016004646 -0.013857109 -0.0037725428 -0.011591403 -0.013310579 -0.0094257565
-0.011294074 0.002793027 0.007249223 -0.013533237 -0.0045119138 -0.032967724 -0.0080117285 0.019919662

arith.constant9 f4 [32]
00000000: 4cea f73c ae29 d23d e7da 1fbc 2add b2bc
00000010: 006f 1ebd a967 6b3d 31bb c13d ca00 01bd
00000020: b823 c53d 8393 06bc d42b 1c3c d977 d53d
00000030: 40fa 873c a5c3 22bb 0d70 673d f4b0 26bd
00000040: 7979 c63b 4a25 1d3d 8972 5a3d e264 f23d
00000050: c568 4dbd 0b6b 14bd c965 25bc c5b6 d1bc
00000060: e14d 813d 72bd b23d a4ab 00bc f9f2 e13d
00000070: 3b88 153d c570 4c3d 299f 693d a465 873d
0.030263089 0.10261856 -0.00975678 -0.021833975 -0.038680077 0.057471905 0.09459532 -0.031494893
0.096259534 -0.0082138805 0.009531934 0.1042325 0.01659882 -0.0024835852 0.056503344 -0.0406961
0.006056961 0.03836564 0.053331885 0.11835648 -0.050148744 -0.036234897 -0.010095068 -0.025599847
0.06313682 0.0872754 -0.007853422 0.110326715 0.036506873 0.049912233 0.057036553 0.06611183

arith.constant10 f4 [64]
00000000: 9953 16bc 2a35 6d3c 8e3b 80bc ddbd ce3d
00000010: 4e14 033e a1c3 02bd ae37 7f3d 9758 f6bc
00000020: 6f4c c1bc 5b8e 2bbc 76c1 8c3d ee4e f93c
00000030: 8705 4a3c 853f b3bc cb27 893d d079 e03b
00000040: 38d6 093e db6b 893c fde1 ea3d 74ba a8bc
00000050: c12b 1dbd 6e2f 18bd f38b 123e 3aa9 be3d
00000060: 50bb bd3a 0ee9 6c3d 2158 70bd 2e59 6fbd
00000070: a8c3 ed3c 99a0 053e adba 3b3d 2924 95bc
00000080: 456b e53d 07ee 70bc ba90 10bd 378b 0bbd
00000090: b8ec 64bc 889b 8d3d c285 dbbc f5e9 6dbd
000000a0: 1853 50bb 9ea5 0a3e 39cb df3d dfbc b83d
000000b0: 9625 193d b94a a73d 7d77 e6bb 35ed fc3d
000000c0: 193f 13ba e34e e9bc 3fcb f83c 4e21 1a3e
000000d0: 46de 7b3c 6029 b73d f5be d23d 8601 073e
000000e0: 69d1 1d3d 728e dd3d 2490 ba3d d7c4 eebb
000000f0: a670 883d 8657 01bd 96b1 0bbd b1a4 5e3d
-0.009175205 0.014478007 -0.015653398 0.10094807 0.12800714 -0.031924848 0.06230896 -0.03007154
-0.023596017 -0.010470952 0.06872837 0.030433144 0.012330419 -0.021880874 0.06697043 0.0068504587
0.13460624 0.016775062 0.11468885 -0.02059672 -0.038371805 -0.037154607 0.14311199 0.09309621
0.0014475379 0.057839446 -0.058677796 -0.058434658 0.02902396 0.13049544 0.045832325 -0.018205719
0.11202101 -0.014705188 -0.035294272 -0.034068312 -0.013972454 0.06914431 -0.02679718 -0.058084447
-0.003178781 0.1353974 0.109274335 0.09020399 0.03738936 0.08168549 -0.007033287 0.12349931
-0.0005617007 -0.028479999 0.030370353 0.15051767 0.015372818 0.089434385 0.102903284 0.13184175
0.038529787 0.10818185 0.09109524 -0.0072866487 0.06662111 -0.03157761 -0.034104906 0.05435628

arith.constant11 f4 [5]
00000000: 0882 a3bc a739 9e3d e166 acbc 25cb 1dbd
00000010: b936 3ebd
-0.019959465 0.0772584 -0.02104515 -0.03852381 -0.046438906

arith.constant12 f4 [5, 32]
00000000: 83b4 2a3e 1d82 adbe ef12 b43d 44a9 a8be
00000010: 12f9 ae3d 7ec7 cbbe 9a89 87be df42 c3be
00000020: 9ac5 c9be a91f 8bbc f5b7 c5be a5c4 a6be
00000030: 5819 0ebe 406d 7fbe af34 28bd 965d 4ebe
00000040: e753 aa3e 5d73 df3e fa4d 663e 431b 6bbe
00000050: 78dc 773e d7d0 6bbe 3ff0 3abe 75ec 00be
00000060: 8a46 1b3d a3ba afbe f14e 33bd 444d 1cbc
00000070: 1220 7cbd 7058 debd ce72 a2bd 88c7 89bd
00000080: 8731 f93c cf2e 013d a968 8dbe cdfa a6be
00000090: f302 4cbe 09d1 c93c 8114 be3e f56b 9bbe
000000a0: 7468 6a3e 0b36 86bd 3cc4 38be 77db 5d3e
000000b0: 7ba8 d3be e800 ce3d e683 223e 03bf 29be
000000c0: ab3b 9bbe d15f acbe 3ec6 d73e 1c6d ba3d
000000d0: 6877 9a3d 45e9 45be 9de3 69be cfa8 bf3c
000000e0: e055 2a3c e09c bbbd 0cb8 91be 575e d33e
000000f0: 866d da3d 90e7 89be 3032 51bd 8f52 393e
00000100: d038 0b3e bfed 8ebe b603 aabd 8b1b c33e
00000110: aca4 c53d e632 1c3e 155f 8abe f721 dcbe
00000120: ead2 4ebe c200 813e 48d8 8dbb e8e2 31bd
00000130: 58c4 ad3e 5dc0 f5bd 20ae 9d3e b1ff 6ebe
00000140: 75d3 20bd 65b4 d23e fdbb d4be f55c 39be
00000150: b1b1 d43c 6107 a03d 446e 943e 6d91 183d
00000160: 6899 0fbe cd37 cbbd d354 343d bbc1 1abe
00000170: b901 84bc a876 abbd f0dc 43be 4a13 debe
00000180: 7efb 01be c049 fcbd e7bd 603e 4ad6 b33d
00000190: bc6f a13d 2780 443e fd05 1f3e 4810 ae3e
000001a0: 6248 cebe e3e4 1bbd 744f c43e 39f3 6f3d
000001b0: 4d97 21be fc06 073e 75ac 81be 1e26 31bd
000001c0: 4c9a 843e 98cf 893e cd65 c6be 68da e43c
000001d0: cf6e c03e c073 a1be 6b06 2c3e 9607 b03e
000001e0: cadc 9bbe bc4d abbd 2df0 993e aeec 6fbe
000001f0: f131 8ebe 8f41 d3bd 50c5 b6be 621f 3d3d
00000200: e5e5 8abe 670d 8fbe 4374 b63e bbe0 603e
00000210: e367 9b3e 7ab4 5bbe 09be e1bd 4ae9 113e
00000220: f7e4 af3e 6501 a73e 34cf 90be 4092 913c
00000230: e3f7 5dbe 9508 5e3e 22a7 9dbe 021e 293e
00000240: 312d 02bd 4bc3 a33e 3843 e43d b3ae e73d
00000250: 10d5 443e 553a 533e 8898 cebe c459 b43e
00000260: 63b7 123e aec3 d3be 2d10 043e 2e5e c43c
00000270: dd04 8e3e be53 823e 3c18 37be a10a 383e
0.16670422 -0.3388833 0.08792674 -0.3294164 0.085436 -0.39800638 -0.2647217 -0.38136956
-0.3940857 -0.01698287 -0.3861691 -0.32571903 -0.13876855 -0.2494402 -0.041065868 -0.20152888
0.33267137 0.43642703 0.22490683 -0.22959618 0.24205196 -0.23028885 -0.18255709 -0.12590201
0.03790907 -0.3432208 -0.043776456 -0.009539906 -0.061554022 -0.10856712 -0.079320535 -0.06727511
0.030419124 0.03153878 -0.27618912 -0.3261322 -0.19923 0.024635809 0.37125018 -0.30355802
0.22891408 -0.06553277 -0.18043607 0.2166575 -0.41339478 0.100587666 0.15870628 -0.16576771
-0.3031896 -0.33666852 0.42143434 0.09102842 0.07542306 -0.19327267 -0.22840734 0.023395924
0.010396451 -0.09160781 -0.2846073 0.41282913 0.10665421 -0.2693448 -0.051073253 0.180979
0.13595891 -0.2791576 -0.08301489 0.3810695 0.09650549 0.15253791 -0.27025667 -0.42994663
-0.20197645 0.2519589 -0.0043287612 -0.043429285 0.3393886 -0.11999581 0.3079691 -0.23339726
-0.03926416 0.41153255 -0.41549674 -0.18101867 0.025963636 0.078139074 0.28990376 0.037248064
-0.14023364 -0.099227525 0.044026207 -0.15112965 -0.016114103 -0.08372241 -0.1912725 -0.4337409
-0.12693593 -0.12318754 0.21947442 0.08781107 0.0788264 0.19189511 0.15529628 0.33996797
-0.402896 -0.03806008 0.38341868 0.058581565 -0.15780373 0.13186258 -0.25326887 -0.043249242
0.2589897 0.26916194 -0.38749543 0.027936175 0.3758454 -0.31533623 0.16799323 0.34380788
-0.30441886 -0.08364436 0.30066052 -0.2343013 -0.27772477 -0.10315239 -0.35697412 0.046172507
-0.2712852 -0.27939913 0.35635576 0.21960728 0.30352697 -0.21455565 -0.110225745 0.14249149
0.34354374 0.3261825 -0.28283083 0.017769933 -0.21676593 0.21682961 -0.30791575 0.16515353
-0.03178138 0.31984934 0.111456335 0.11312618 0.19221902 0.2062772 -0.40350747 0.35224736
0.14327769 -0.4136023 0.12896796 0.02397069 0.27738085 0.25454515 -0.17880338 0.17972805

tfl.pseudo_qconst i1 [32, 64]
00000000: fd06 4304 7ff9 eace dd01 68d2 6a51 dede
00000010: dacb f614 bfb6 8fc0 2c10 35c4 d70f d6f4
00000020: ae29 3dc3 5c10 d61b c003 5a26 62ba d0ba
00000030: 2210 6b35 5e5b 4940 4912 a951 f16b 33fc
00000040: 026d 874e 7fd5 efd0 8b4f aff5 c39d af51
00000050: b1d8 7a9d ae64 d668 9e4d d906 5eb2 5beb
00000060: 63f8 fe95 a874 b155 da44 3c1f 4c25 2717
00000070: 2207 0d55 a64e 1470 384c 5fab e8e0 b2be
00000080: d5b3 0f86 eab8 9f7c 307b 20eb e3df 6505
00000090: 7fa2 ec3a a9a5 97a5 e4ff 0f8d 6600 bedc
000000a0: e9b7 1577 9d3a 8717 9211 5714 638b 28b1
000000b0: 0463 6609 622a 29bb ca3d dccf 938a 0b4d
000000c0: 31e5 148d fd81 4396 b298 b144 1112 37aa
000000d0: 9c03 04f8 0173 4cb6 2432 16a4 c967 2dee
000000e0: b189 48cb 67e3 1a63 785a 23d7 ad6a 333c
000000f0: bb35 e33b d49a 8847 5dd4 546e 86fa 18a4
-3 6 67 4 127 -7 -22 -50
-35 1 104 -46 106 81 -34 -34
-38 -53 -10 20 -65 -74 -113 -64
44 16 53 -60 -41 15 -42 -12
-82 41 61 -61 92 16 -42 27
-64 3 90 38 98 -70 -48 -70
34 16 107 53 94 91 73 64
73 18 -87 81 -15 107 51 -4
2 109 -121 78 127 -43 -17 -48
-117 79 -81 -11 -61 -99 -81 81
-79 -40 122 -99 -82 100 -42 104
-98 77 -39 6 94 -78 91 -21
99 -8 -2 -107 -88 116 -79 85
-38 68 60 31 76 37 39 23
34 7 13 85 -90 78 20 112
56 76 95 -85 -24 -32 -78 -66
-43 -77 15 -122 -22 -72 -97 124
48 123 32 -21 -29 -33 101 5
127 -94 -20 58 -87 -91 -105 -91
-28 -1 15 -115 102 0 -66 -36
-23 -73 21 119 -99 58 -121 23
-110 17 87 20 99 -117 40 -79
4 99 102 9 98 42 41 -69
-54 61 -36 -49 -109 -118 11 77
49 -27 20 -115 -3 -127 67 -106
-78 -104 -79 68 17 18 55 -86
-100 3 4 -8 1 115 76 -74
36 50 22 -92 -55 103 45 -18
-79 -119 72 -53 103 -29 26 99
120 90 35 -41 -83 106 51 60
-69 53 -29 59 -44 -102 -120 71
93 -44 84 110 -122 -6 24 -92

tfl.pseudo_qconst1 i1 [64, 128]
00000000: 69a9 2fed 9402 0b60 6503 14ad ee19 acca
00000010: 69b9 2cec be00 df51 bc22 a7e9 8bf2 ee2d
00000020: 6537 afc6 1c11 2c1b 2781 e5d4 091a 55ba
00000030: 2eef abee 6339 3daa 1fbc 5f03 4fc2 db26
00000040: 9060 1d93 324e fa68 21d0 052f b5bd d6ee
00000050: cf9c de4d 07b2 c2d8 1946 3319 f297 4adf
00000060: c50a c1e1 97ec 57de 3c2f fbef 4040 ebf0
00000070: ba87 10d8 0aad e70f 1547 0643 a245 4164
00000080: b6be 374b be16 b0ca c259 04d3 cbfe b6b8
00000090: d1d6 db6b 4345 4e76 3d32 22e1 42c0 a0fd
000000a0: 06ef 39a9 a208 5257 f130 f722 3b5c 61ce
000000b0: 392b 3201 62b9 116c 4c5b fddc f2ed afd1
000000c0: 5ac9 0d14 2c12 3d09 c1f6 2a81 b4d6 32e3
000000d0: 0309 cf23 3818 d3f7 bc27 09d9 05b1 361c
000000e0: 1f8d 1700 e03d aeb8 5556 18ed d1b1 e8d1
000000f0: 2239 d30b d7ff 1d91 34ea c4ae 1e0a 3e41
105 -87 47 -19 -108 2 11 96
101 3 20 -83 -18 25 -84 -54
105 -71 44 -20 -66 0 -33 81
-68 34 -89 -23 -117 -14 -18 45
101 55 -81 -58 28 17 44 27
39 -127 -27 -44 9 26 85 -70
46 -17 -85 -18 99 57 61 -86
31 -68 95 3 79 -62 -37 38
-112 96 29 -109 50 78 -6 104
33 -48 5 47 -75 -67 -42 -18
-49 -100 -34 77 7 -78 -62 -40
25 70 51 25 -14 -105 74 -33
-59 10 -63 -31 -105 -20 87 -34
60 47 -5 -17 64 64 -21 -16
-70 -121 16 -40 10 -83 -25 15
21 71 6 67 -94 69 65 100
-74 -66 55 75 -66 22 -80 -54
-62 89 4 -45 -53 -2 -74 -72
-47 -42 -37 107 67 69 78 118
61 50 34 -31 66 -64 -96 -3
6 -17 57 -87 -94 8 82 87
-15 48 -9 34 59 92 97 -50
57 43 50 1 98 -71 17 108
76 91 -3 -36 -14 -19 -81 -47
90 -55 13 20 44 18 61 9
-63 -10 42 -127 -76 -42 50 -29
3 9 -49 35 56 24 -45 -9
-68 39 9 -39 5 -79 54 28
31 -115 23 0 -32 61 -82 -72
85 86 24 -19 -47 -79 -24 -47
34 57 -45 11 -41 -1 29 -111
52 -22 -60 -82 30 10 62 65

tfl.pseudo_qconst2 i1 [512, 64]
00000000: 85b0 c7cd 6193 adf4 7ffa edd3 5ac1 6c95
00000010: 25a9 c8e0 240f f511 8b39 27e6 adaf d0d0
00000020: e669 61c2 0eac d805 a2e1 05a0 34bc 509a
00000030: b8c9 ba44 bb2b 4cce 21e2 3300 e4b8 f364
00000040: 3297 04cd 9e04 eb10 c106 5403 2713 20d6
00000050: 16cc 1642 dfc6 dea2 b4b0 bbf4 17d7 d491
00000060: 11c9 3bc6 fdb9 93c7 4a13 e381 1dfb 581d
00000070: df5d b699 e153 35e9 359e a6a4 ef39 342f
00000080: 6404 3fcd 12b3 c0f9 0838 8daf 9449 c6b9
00000090: bb10 b691 ee1b fd58 5e1e 211d 2c25 40ab
000000a0: 981a a2c2 e8ad 819e ffd0 8712 424b 358a
000000b0: 0dd8 4621 4c09 a3b9 b3e3 a3ff 5348 21ab
000000c0: c03b 6a4b c6ee 2e04 233a baed 9103 b438
000000d0: 69b6 dc44 e9f9 9cc2 667b a98b df6a 042d
000000e0: 5303 cca4 1450 5844 940b aa73 1ad5 4251
000000f0: da67 9b60 5e01 1931 c049 d60b f42c 8151
-123 -80 -57 -51 97 -109 -83 -12
127 -6 -19 -45 90 -63 108 -107
37 -87 -56 -32 36 15 -11 17
-117 57 39 -26 -83 -81 -48 -48
-26 105 97 -62 14 -84 -40 5
-94 -31 5 -96 52 -68 80 -102
-72 -55 -70 68 -69 43 76 -50
33 -30 51 0 -28 -72 -13 100
50 -105 4 -51 -98 4 -21 16
-63 6 84 3 39 19 32 -42
22 -52 22 66 -33 -58 -34 -94
-76 -80 -69 -12 23 -41 -44 -111
17 -55 59 -58 -3 -71 -109 -57
74 19 -29 -127 29 -5 88 29
-33 93 -74 -103 -31 83 53 -23
53 -98 -90 -92 -17 57 52 47
100 4 63 -51 18 -77 -64 -7
8 56 -115 -81 -108 73 -58 -71
-69 16 -74 -111 -18 27 -3 88
94 30 33 29 44 37 64 -85
-104 26 -94 -62 -24 -83 -127 -98
-1 -48 -121 18 66 75 53 -118
13 -40 70 33 76 9 -93 -71
-77 -29 -93 -1 83 72 33 -85
-64 59 106 75 -58 -18 46 4
35 58 -70 -19 -111 3 -76 56
105 -74 -36 68 -23 -7 -100 -62
102 123 -87 -117 -33 106 4 45
83 3 -52 -92 20 80 88 68
-108 11 -86 115 26 -43 66 81
-38 103 -101 96 94 1 25 49
-64 73 -42 11 -12 44 -127 81

tfl.pseudo_qconst3 i1 [512, 128]
00000000: 4418 ffcb 1a05 1f08 11e0 2a40 3e5f d410
00000010: fd24 d745 f923 f7e6 3515 2b00 00f8 0320
00000020: 1d27 e7b9 10f6 a0c9 0713 2a18 fd11 167f
00000030: 0def 11e4 2e07 12ed 35fe 53d8 ea22 11ed
00000040: 27e6 9d14 fbfd 1d28 01b2 d710 0d0b 0c14
00000050: e2f3 392d 1de0 24eb e225 350e 171a efcd
00000060: e7fa eac5 76f9 15fd 3317 fcea e3ff f621
00000070: 08be f802 f93c 05da e8e5 aad8 e724 2901
00000080: edcd eff6 37ec f993 e6fc 1327 d7f0 f8d4
00000090: c4f2 d10c 3e31 ef05 f454 b4d1 f9c1 14dc
000000a0: 1c03 6cd6 25a5 d2ba bdb9 fcec 3504 2809
000000b0: 3de2 eb19 0523 d581 cff2 1a12 e2c0 c5fd
000000c0: a9f5 3317 1f35 e41d e1dd ca21 ed03 b4db
000000d0: 0ff7 3de6 8506 9a7f e4fa e4f3 4205 9b0a
000000e0: ea2a e6ae 1207 dbc5 f0b7 d5c7 b8ad e045
000000f0: 2ab0 3700 dbb7 effa 71f7 0710 1ffc 1cdf
68 24 -1 -53 26 5 31 8
17 -32 42 64 62 95 -44 16
-3 36 -41 69 -7 35 -9 -26
53 21 43 0 0 -8 3 32
29 39 -25 -71 16 -10 -96 -55
7 19 42 24 -3 17 22 127
13 -17 17 -28 46 7 18 -19
53 -2 83 -40 -22 34 17 -19
39 -26 -99 20 -5 -3 29 40
1 -78 -41 16 13 11 12 20
-30 -13 57 45 29 -32 36 -21
-30 37 53 14 23 26 -17 -51
-25 -6 -22 -59 118 -7 21 -3
51 23 -4 -22 -29 -1 -10 33
8 -66 -8 2 -7 60 5 -38
-24 -27 -86 -40 -25 36 41 1
-19 -51 -17 -10 55 -20 -7 -109
-26 -4 19 39 -41 -16 -8 -44
-60 -14 -47 12 62 49 -17 5
-12 84 -76 -47 -7 -63 20 -36
28 3 108 -42 37 -91 -46 -70
-67 -71 -4 -20 53 4 40 9
61 -30 -21 25 5 35 -43 -127
-49 -14 26 18 -30 -64 -59 -3
-87 -11 51 23 31 53 -28 29
-31 -35 -54 33 -19 3 -76 -37
15 -9 61 -26 -123 6 -102 127
-28 -6 -28 -13 66 5 -101 10
-22 42 -26 -82 18 7 -37 -59
-16 -73 -43 -57 -72 -83 -32 69
42 -80 55 0 -37 -73 -17 -6
113 -9 7 16 31 -4 28 -33

tfl.pseudo_qconst4 i1 [256, 63]
00000000: 5113 f8fc c381 1442 eb5d d1d0 6811 ec51
00000010: 6bd7 1578 dc3b 44ad bf56 0a09 b747 ea50
00000020: 53a1 bc4f d3dd d8ff 23ef 5a26 9c5e b930
00000030: 3256 3b27 e053 b46c b540 d806 e61f f543
00000040: 0e01 cc5c ec8a 7ead fed0 8573 637a 11f1
00000050: e583 33d3 ce1e b194 bcda 75df 979f 040e
00000060: 0acc 561e f183 a044 0d7b 12c0 1b86 8bb2
00000070: 8193 95f4 4c77 c169 1f9b 9385 cac0 1a9e
00000080: b5b9 efc7 7439 b810 a0f7 7707 5fbd af37
00000090: d152 e756 24b3 2a2e 2ca5 2646 c7b6 a636
000000a0: 0823 c1b1 c61b 15b1 0268 52f5 f2f5 a831
000000b0: 19af d694 a401 c750 2403 be7f 555e a929
000000c0: e25b 6df6 39c8 32fa a6fe fcd1 effe dbaa
000000d0: 4a3b 2924 c23f 4b4e dfdb b82b 3130 35c8
000000e0: 2ff6 e4b1 fd3c f023 fa47 8210 1637 f427
000000f0: 9dbd 4081 c664 ef17 6014 69aa 8c8e 440a
81 19 -8 -4 -61 -127 20 66
-21 93 -47 -48 104 17 -20 81
107 -41 21 120 -36 59 68 -83
-65 86 10 9 -73 71 -22 80
83 -95 -68 79 -45 -35 -40 -1
35 -17 90 38 -100 94 -71 48
50 86 59 39 -32 83 -76 108
-75 64 -40 6 -26 31 -11 67
14 1 -52 92 -20 -118 126 -83
-2 -48 -123 115 99 122 17 -15
-27 -125 51 -45 -50 30 -79 -108
-68 -38 117 -33 -105 -97 4 14
10 -52 86 30 -15 -125 -96 68
13 123 18 -64 27 -122 -117 -78
-127 -109 -107 -12 76 119 -63 105
31 -101 -109 -123 -54 -64 26 -98
-75 -71 -17 -57 116 57 -72 16
-96 -9 119 7 95 -67 -81 55
-47 82 -25 86 36 -77 42 46
44 -91 38 70 -57 -74 -90 54
8 35 -63 -79 -58 27 21 -79
2 104 82 -11 -14 -11 -88 49
25 -81 -42 -108 -92 1 -57 80
36 3 -66 127 85 94 -87 41
-30 91 109 -10 57 -56 50 -6
-90 -2 -4 -47 -17 -2 -37 -86
74 59 41 36 -62 63 75 78
-33 -37 -72 43 49 48 53 -56
47 -10 -28 -79 -3 60 -16 35
-6 71 -126 16 22 55 -12 39
-99 -67 64 -127 -58 100 -17 23
96 20 105 -86 -116 -114 68 10

tfl.pseudo_qconst5 i1 [256, 64]
00000000: 3eff e3fe 610a 3d7f 17f5 4b25 26d2 f041
00000010: 2749 1df6 433d c911 1dfe f5fd 4d1d 2a37
00000020: 737d f211 34f1 ede9 2c3c 38f9 e1fa f835
00000030: 521d d129 2906 440c 0a02 031b 05e5 3953
00000040: a7f6 ab1d 5294 00fb e9e3 2925 fddb 07dc
00000050: fd1e b1e7 e2f2 30e1 f4ea d818 1440 34f3
00000060: af17 0221 01fc 17ef 20e9 df13 effe 2cd8
00000070: 3400 4520 23d2 3028 dbf7 b831 1481 0d1f
00000080: db3c 0619 57b2 b6a7 2825 c4f9 f309 e6e6
00000090: c8e2 4206 dddc fe26 1c45 e6d1 91fa 62ae
000000a0: e635 13b4 28dc df7f 1d63 a3ef 6cef 1eed
000000b0: cccd be10 1c5b 2d02 2ae2 c78c e4e4 30c9
000000c0: 1d1a f113 d5d9 f2e9 e2bd 5c05 d5fb f4d4
000000d0: d3a2 17a5 e2ee 2f26 07fb 29e9 812d 37d7
000000e0: 5a1d 13cf 11c4 e805 c2d2 d618 db39 f71d
000000f0: 0501 ebf4 134c 13ea bfd0 a69e e5d3 4bee
62 -1 -29 -2 97 10 61 127
23 -11 75 37 38 -46 -16 65
39 73 29 -10 67 61 -55 17
29 -2 -11 -3 77 29 42 55
115 125 -14 17 52 -15 -19 -23
44 60 56 -7 -31 -6 -8 53
82 29 -47 41 41 6 68 12
10 2 3 27 5 -27 57 83
-89 -10 -85 29 82 -108 0 -5
-23 -29 41 37 -3 -37 7 -36
-3 30 -79 -25 -30 -14 48 -31
-12 -22 -40 24 20 64 52 -13
-81 23 2 33 1 -4 23 -17
32 -23 -33 19 -17 -2 44 -40
52 0 69 32 35 -46 48 40
-37 -9 -72 49 20 -127 13 31
-37 60 6 25 87 -78 -74 -89
40 37 -60 -7 -13 9 -26 -26
-56 -30 66 6 -35 -36 -2 38
28 69 -26 -47 -111 -6 98 -82
-26 53 19 -76 40 -36 -33 127
29 99 -93 -17 108 -17 30 -19
-52 -51 -66 16 28 91 45 2
42 -30 -57 -116 -28 -28 48 -55
29 26 -15 19 -43 -39 -14 -23
-30 -67 92 5 -43 -5 -12 -44
-45 -94 23 -91 -30 -18 47 38
7 -5 41 -23 -127 45 55 -41
90 29 19 -49 17 -60 -24 5
-62 -46 -42 24 -37 57 -9 29
5 1 -21 -12 19 76 19 -22
-65 -48 -90 -98 -27 -45 75 -18
